Cartpole_weight.pt (torch, 71447 bytes, 6 tensors)

fc1.weight f4 [128, 4]
0	0xbecd2018	-0.40063548
1	0x3ea09c7d	0.3136939
2	0xbd5af659	-0.05345759
3	0xbdd92df6	-0.106044695
4	0x3e65f97d	0.22458453
5	0xbe9b1176	-0.3028676
6	0x3eaf63b1	0.34255746
7	0xbe2db4f6	-0.16963562
8	0x3eab13ea	0.3341363
9	0x3ec67a09	0.3876498
10	0x3ebf461b	0.37358174
11	0xbe267600	-0.16255951
12	0x3e92c25e	0.28663915
13	0xbea7d45a	-0.327792
14	0xbf21a80a	-0.6314703
15	0x3cccb697	0.02498941
16	0x3ead9fa5	0.33910862
17	0xbd05ac47	-0.032635
18	0xbd5efcf2	-0.054440446
19	0x3df3466e	0.11878668
20	0xbe7da7af	-0.24770997
21	0xbe7b8a82	-0.24564555
22	0xbe8789de	-0.26472372
23	0xbf045e24	-0.5170615
24	0xbe4c119b	-0.19928591
25	0xbef4a2fb	-0.47780594
26	0xbf06cf96	-0.526605
27	0xbec9c5bd	-0.39408675
28	0x3e530c9c	0.20610279
29	0xbeac6c91	-0.3367658
30	0xbe8fbfd7	-0.2807605
31	0xbe9b859d	-0.30375376
32	0xbdda1d1b	-0.10650083
33	0x3e9d1ef0	0.30687666
34	0xbecb297c	-0.39680088
35	0xbe32aabb	-0.17447941
36	0x3ddd8934	0.10817185
37	0xbebec2f6	-0.37258118
38	0xbee42a6a	-0.4456361
39	0xbe60f51f	-0.21968506
40	0xbebbf4fb	-0.36710343
41	0x3de7d654	0.11320177
42	0xbcec5526	-0.028849196
43	0x3e909b5a	0.28243524
44	0xbea3dc67	-0.3200409
45	0x3ebb635a	0.36599237
46	0x3f11e54e	0.56990516
47	0x3e6a4bd9	0.22880496
48	0x3eb8bdbc	0.36082256
49	0xbd80afd8	-0.062835395
50	0xbe89bd54	-0.26902258
51	0xbe077e5e	-0.13231799
52	0x3e075023	0.13214163
53	0xbe72767e	-0.23678014
54	0xbe9f773b	-0.31145653
55	0x3d8e15b0	0.0693773
56	0xbea7c7a3	-0.32769498
57	0xbd15ebe3	-0.036601912
58	0x3f2478cb	0.64246815
59	0x3e52c4bb	0.20582859
60	0xbd3e24f5	-0.046421964
61	0xbd1b6345	-0.037936468
62	0xbe2124cb	-0.15736692
63	0xbcba70f9	-0.022758948
64	0x3d49a56e	0.04923003
65	0xbe8d9e76	-0.2765996
66	0xbedee030	-0.43530416
67	0xbcb75f9d	-0.02238446
68	0xbe881a02	-0.26582342
69	0x3e3072fe	0.17231366
70	0x3e85b09e	0.2611131
71	0xbe023c32	-0.12718275
72	0xbe27c85f	-0.1638503
73	0xbee307a7	-0.44341776
74	0xbf475626	-0.7786583
75	0xbed541cb	-0.4165176
76	0xbe4cf914	-0.20016891
77	0xbdfc5d3b	-0.1232247
78	0x3e196312	0.14979199
79	0x3dc42bc5	0.09578661
80	0xbe468c7f	-0.19389533
81	0x3ea6c51c	0.32572258
82	0xbec2186c	-0.37909257
83	0x3dcba437	0.09943431
84	0x3e98bbb8	0.29830718
85	0xbeab60f6	-0.33472413
86	0x3dff8d70	0.12478149
87	0xbe23cbef	-0.15995763
88	0x3d0f0d16	0.03492459
89	0xbe0ff4ee	-0.14058277
90	0x3ea39d50	0.31955957
91	0xbebfef8d	-0.3748745
92	0xbdd19d05	-0.10235027
93	0xbdde97f2	-0.10868825
94	0xbecc704a	-0.3992942
95	0x3d3bb50f	0.045826968
96	0xbdb872a7	-0.09006243
97	0xbe21befd	-0.15795512
98	0x3f32626d	0.69681436
99	0x3ee017fe	0.43768305
100	0x3ea08062	0.31347948
101	0xbebd6b26	-0.3699581
102	0xbee2bd81	-0.44285205
103	0xbeec6ac4	-0.46175206
104	0xbe1f729d	-0.15571065
105	0x3e5d6d72	0.21623781
106	0x3e3d5e9a	0.18493119
107	0xbd3a9b3f	-0.04555821
108	0xbe2b73a1	-0.16743328
109	0xbd7e7928	-0.062127262
110	0x3e0249e9	0.12723507
111	0x3d457761	0.04820955
112	0xbdd3278c	-0.10310277
113	0x3e177519	0.14790763
114	0xbd1548fd	-0.03644656
115	0xbe869e4a	-0.2629264
116	0x3e5edae5	0.21763189
117	0xbd28cb78	-0.041209668
118	0xbdb38798	-0.08766097
119	0x3e7b9212	0.2456744
120	0xbd2480d5	-0.040161926
121	0xbe1f75bc	-0.15572256
122	0x3d8a79f1	0.0676154
123	0xbca95e66	-0.020674895
124	0xbe9db982	-0.30805594
125	0x3e6795a6	0.2261568
126	0xbedcf283	-0.43153772
127	0xbd66a68a	-0.056311168
128	0xbdd72231	-0.10504568
129	0x3d60636e	0.054782324
130	0x3ec552f4	0.3853985
131	0x3e8569c7	0.26057264
132	0x3e6499a8	0.2232424
133	0x3e061eef	0.13097738
134	0x3e17d131	0.14825894
135	0xbd913a47	-0.07091194
136	0xbddc5c4b	-0.10759791
137	0xbedb4220	-0.42823887
138	0xbec24e47	-0.37950346
139	0xbe543368	-0.20722735
140	0xbc3ffce7	-0.011718011
141	0xbe8240c4	-0.25440037
142	0xbdd7f986	-0.1054564
143	0xbed3e5e4	-0.4138633
144	0xbe7c3be8	-0.24632227
145	0xbe3e64d5	-0.18593152
146	0xbcf64a67	-0.030064775
147	0x3e707742	0.23482993
148	0xbdd8cf82	-0.10586454
149	0x3ebbf627	0.36711237
150	0xbe8b2d6e	-0.27183098
151	0x3eb25a20	0.34834385
152	0x3e2d4481	0.16920663
153	0x3ec8f703	0.39250955
154	0xbd986511	-0.07441152
155	0xbeaf2b5e	-0.34212774
156	0x3e1f1608	0.15535748
157	0xbe42b85d	-0.19015642
158	0xbf18e41b	-0.5972306
159	0x3eb8e0d2	0.36109024
160	0xbe01a25a	-0.12659588
161	0x3db9aeab	0.090665184
162	0xbe838ee4	-0.25694954
163	0x3d8ce1ef	0.06879031
164	0xbe17ff1f	-0.14843415
165	0x3c9a18b0	0.0188106
166	0xbaf39253	-0.0018583037
167	0x3e2db790	0.16964555
168	0x3e9c5565	0.305339
169	0xbdf45d33	-0.11931839
170	0x3f391a00	0.723053
171	0x3ea75530	0.3268218
172	0xbe3ba832	-0.1832588
173	0xbeb815b4	-0.35954058
174	0x3dc5c411	0.09656537
175	0xbe667bcd	-0.22508164
176	0x3e7efbfb	0.2490081
177	0xbe5a73de	-0.21333262
178	0xbed4d6fc	-0.4157027
179	0x3dc0c510	0.09412587
180	0xbe8de1f4	-0.2771145
181	0x3ea85743	0.32879075
182	0xbe38ad54	-0.1803487
183	0x3d81ba65	0.0633438
184	0x3dddc2e8	0.10828191
185	0x3dc6ae7e	0.097012505
186	0x3f084327	0.53227466
187	0xbecaa716	-0.395806
188	0x3ea1ee2f	0.31627032
189	0x3ee34017	0.44384834
190	0xbe4c0e15	-0.19927247
191	0x3e9ecc86	0.31015414
192	0x3e9d4d27	0.30722925
193	0x3ea3cff1	0.31994584
194	0xbe4fe1c8	-0.20300972
195	0xbd1d3268	-0.03837815
196	0x3ec6bb94	0.38814986
197	0xbeb7deb8	-0.35912108
198	0x3ef18eac	0.47179163
199	0x3d9d3cab	0.07677587
200	0x3eb30430	0.34964132
201	0xbc87192a	-0.016491491
202	0xbf53c838	-0.82727385
203	0x3ea260f2	0.31714588
204	0x3eb2c373	0.3491474
205	0xbec845c5	-0.3911573
206	0xbebf8e78	-0.37413383
207	0x3dcca425	0.099922456
208	0xbe42e673	-0.19033222
209	0x3eae7dd6	0.3408038
210	0x3cb9ab47	0.02266468
211	0xbe1ed9fd	-0.15512843
212	0xbdd1bc8f	-0.10241043
213	0x3edd47a6	0.43218726
214	0xbd123aa9	-0.035700474
215	0xbeeeaec1	-0.46617702
216	0x3e1056f0	0.14095664
217	0x3eacc396	0.3374297
218	0x3ec77566	0.38956755
219	0x3ec96e3d	0.39341918
220	0xbe989994	-0.2980467
221	0xbe7b43e0	-0.24537611
222	0x3f086197	0.5327391
223	0xbd3ca1c9	-0.046052728
224	0x3ebf2e03	0.37339792
225	0xbe8d9409	-0.27652004
226	0x3f0e2cf6	0.55537355
227	0x3e89f45a	0.26944238
228	0x3dd3a09e	0.1033337
229	0x3e9082b7	0.28224728
230	0x3eb6fe97	0.35741112
231	0xbeb9d4c0	-0.36295128
232	0x3e6d125e	0.23151538
233	0x3dfd73da	0.123756126
234	0xbea1ed77	-0.31626484
235	0x3e34322f	0.17597269
236	0x3ecbd11e	0.3980798
237	0x3e7f71b3	0.24945717
238	0x3eab11f7	0.33412144
239	0x3ee8f4ac	0.4549917
240	0x3e0251c5	0.12726505
241	0xbdca95be	-0.09891842
242	0x3f0cae57	0.5495352
243	0x3e259a3e	0.1617212
244	0xbea0ac75	-0.31381574
245	0xbe4266a1	-0.18984462
246	0x3f15ce43	0.58517855
247	0xbe108d10	-0.14116311
248	0x3e9a7261	0.3016539
249	0xbbfe3bd3	-0.0077585964
250	0xbece12aa	-0.40248615
251	0xbee798d7	-0.45233795
252	0x3e352673	0.17690448
253	0xbd1802f8	-0.037112206
254	0x3e25455c	0.1613974
255	0xbc8ac4df	-0.016939579

fc1.bias f4 [128]
0	0xbe13f162	-0.14447549
1	0xbec7ecad	-0.39047757
2	0xbe53edc5	-0.2069617
3	0xbe4d5293	-0.20051031
4	0xbf0fd595	-0.56185275
5	0xbed23e49	-0.41063145
6	0x3ecb6bd7	0.39730713
7	0x3e972994	0.2952391
8	0x3ec84182	0.39112478
9	0xbe756b51	-0.23966719
10	0xbefdf3e7	-0.49600145
11	0x3e95f4f7	0.29288456
12	0xbf13e137	-0.57765526
13	0xbe6e5c48	-0.2327739
14	0xbd2bd657	-0.041952457
15	0xbe01d53a	-0.12678996
16	0x3ee2ee47	0.44322416
17	0xbe6f046b	-0.23341529
18	0x3b12e206	0.0022412552
19	0xbe883370	-0.26601744
20	0x3c60967d	0.013707754
21	0xbf12692c	-0.5719173
22	0xbf016739	-0.5054813
23	0x3ea0a8f3	0.31378898
24	0xbea8c2f7	-0.32961246
25	0xbe5dd8d8	-0.2166475
26	0x3d223713	0.039603304
27	0xbebb7750	-0.36614466
28	0x3d6ffe29	0.058591995
29	0xbd15964b	-0.036520284
30	0x3ee5be41	0.44871715
31	0x3c199b07	0.00937534
32	0x3eac3424	0.3363353
33	0xbee84c29	-0.45370606
34	0xbebd417e	-0.3696403
35	0xbe233859	-0.15939464
36	0x3ec5f6e2	0.3866492
37	0x3dffa048	0.12481743
38	0xbeacc603	-0.3374482
39	0xbe91b8ae	-0.28461212
40	0x3e8999db	0.26875195
41	0xbe8b55bf	-0.27213857
42	0x3ec5e930	0.3865447
43	0xbee100b6	-0.43945855
44	0x3f006d23	0.5016653
45	0x3ecb9e5d	0.3976926
46	0x3e503a97	0.2033485
47	0xbea909dd	-0.33015338
48	0xbee65681	-0.44987872
49	0xbe9e185a	-0.30877954
50	0x3e3ac456	0.18238959
51	0x3e495902	0.1966286
52	0xbf0d371c	-0.55162215
53	0xbe95e250	-0.29274225
54	0x3ebd68e1	0.3699408
55	0xbe9df807	-0.30853292
56	0xbe12fb1c	-0.14353603
57	0x3f003b60	0.500906
58	0xbed7f766	-0.42180938
59	0xbee555aa	-0.4479192
60	0x3ee91137	0.45520946
61	0x3e0d4bc0	0.13798428
62	0x3ed492a7	0.41518137
63	0x3d826421	0.06366754
64	0x3ed7b0d3	0.42127094
65	0x3e0acb2e	0.1355407
66	0x3e81d9bc	0.2536143
67	0xbde94db5	-0.113917746
68	0xbe33c017	-0.17553745
69	0x3e725fb5	0.23669322
70	0xbea7b66b	-0.3275636
71	0xbe875449	-0.26431492
72	0xbe1526bb	-0.14565556
73	0xbed0952f	-0.40738818
74	0xbe0a1c2b	-0.13487308
75	0xbebf174f	-0.3732247
76	0xbeaaf5ca	-0.33390647
77	0x3c989f79	0.01863073
78	0x3ebf92b4	0.37416613
79	0xbe8550a6	-0.26038092
80	0xbe3fadd4	-0.18718654
81	0xbe6df6eb	-0.23238723
82	0x3e951099	0.29114226
83	0x3ebf7985	0.373974
84	0xbe47a28f	-0.19495605
85	0xbe243827	-0.16037045
86	0xbe9d0161	-0.30665115
87	0x3e912909	0.2835162
88	0xbd34398a	-0.044000186
89	0xbd9b2f6d	-0.07577405
90	0x3d1a60a5	0.037689824
91	0xbe2f2c7f	-0.17106818
92	0xbeec681f	-0.46173188
93	0x3e897602	0.26847845
94	0xbeff04cf	-0.49808356
95	0x3e94223e	0.28932375
96	0x3e66cd89	0.22539343
97	0xbe777caf	-0.24168657
98	0xbcda59c6	-0.026654135
99	0x3c7d0e0c	0.015445244
100	0x3ecc0b6d	0.39852467
101	0xbe0ddf5a	-0.13854733
102	0x3eba8760	0.36431408
103	0x3e5d5edf	0.21618222
104	0x3de981f4	0.1140174
105	0x3ed542a9	0.4165242
106	0xbc732d4b	-0.014842342
107	0xbea22ad1	-0.3167329
108	0x3c8f5748	0.017497674
109	0xbed38f94	-0.4132048
110	0x3d4d150c	0.0500689
111	0x3e164e96	0.14678416
112	0xbe9c27cc	-0.30499113
113	0xbe63c6c1	-0.22243787
114	0x3e26db58	0.1629461
115	0x3db7f645	0.08982519
116	0xbed717be	-0.420103
117	0x3dffa162	0.12481953
118	0x3ed8cd6e	0.4234423
119	0xbdd8de4c	-0.10589275
120	0xbf01041d	-0.503969
121	0x3e159d84	0.14610869
122	0x3ad46d3b	0.001620687
123	0x3e151aab	0.14560954
124	0x3b390932	0.002823424
125	0xbe897905	-0.26850143
126	0xbee05e09	-0.43821743
127	0x3e8ce114	0.2751547

fc2.weight f4 [128, 128]
0	0x3ca1691b	0.019703439
1	0x3db3c47b	0.0877771
2	0xbc137859	-0.009000861
3	0xbd81c82f	-0.0633701
4	0xbaa3e53f	-0.0012504234
5	0xbb57a79a	-0.0032906295
6	0xbdf1db11	-0.11809362
7	0xbb491858	-0.0030684676
8	0x3d579a6e	0.05263751
9	0x3b52bf60	0.0032157525
10	0xbd942f66	-0.07235603
11	0x3d50e2d4	0.05099757
12	0x3d660dcb	0.056165498
13	0xbc669c78	-0.014075391
14	0xbcb43280	-0.021996737
15	0xbd334075	-0.043762643
16	0xbdd60021	-0.10449243
17	0xbdafab9f	-0.08577656
18	0xbd74b814	-0.059745863
19	0xbda6f095	-0.08151356
20	0xbdaddae9	-0.084890194
21	0xbc5342c0	-0.012894332
22	0xbd991c0a	-0.07476051
23	0xbd362dcc	-0.04447727
24	0xbc08c5d0	-0.008347943
25	0xbd84c7cc	-0.06483421
26	0xbd6a0773	-0.05713601
27	0x3d8b7cef	0.068109386
28	0xbdaac7a5	-0.083388604
29	0xbceceb4b	-0.02892079
30	0xbd414de1	-0.04719341
31	0x3cf02a29	0.029316979
32	0xbe061f84	-0.1309796
33	0x3cf029d8	0.029316828
34	0x3d93b543	0.07212307
35	0x3da27ca5	0.0793393
36	0xbce820d7	-0.028335972
37	0xbdc3c5f7	-0.09559243
38	0x3d98a7b1	0.074538596
39	0x3c310c40	0.010806143
40	0x3d75ca0d	0.060007144
41	0x3d1890d6	0.0372475
42	0xbde58a9f	-0.112080805
43	0xbbac9930	-0.005267285
44	0xbd33c2cb	-0.04388694
45	0xbcb2a541	-0.021807315
46	0x3d80c8f8	0.06288332
47	0xbc195c5d	-0.0093604
48	0xbc54dcf7	-0.012992135
49	0xbdc02cc2	-0.09383537
50	0x3d30c067	0.04315224
51	0xbb918fc1	-0.0044421856
52	0x3d83a37d	0.06427667
53	0xbbba2c49	-0.0056815487
54	0xbcff6ad6	-0.031178873
55	0xbd02e0b8	-0.03195259
56	0xbd9896f7	-0.07450669
57	0x3cb7251c	0.022356562
58	0x3c1e7046	0.009670323
59	0xbd8c8400	-0.068611145
60	0x3bf1bc0a	0.0073771523
61	0x3cdd71ad	0.027031744
62	0xbd12f3be	-0.035876982
63	0xbd257350	-0.040393174
64	0xbd928b4a	-0.071554735
65	0x3c7ddcca	0.015494535
66	0x3ca5c143	0.020233756
67	0xbd799def	-0.060941633
68	0xbc6eab10	-0.014567152
69	0xbd49c2e6	-0.049258135
70	0x3d6ed5df	0.058309432
71	0x3c67cbdf	0.014147728
72	0xbc9658cf	-0.018352894
73	0x3c5f5248	0.013630457
74	0xbc711f35	-0.014716913
75	0xbdad4eb6	-0.084622785
76	0xbceb3f72	-0.028716777
77	0x3d2bc1bf	0.041932818
78	0xbd852769	-0.065016575
79	0xbd4763e5	-0.04867925
80	0x3c1f9692	0.009740489
81	0xbca0c8c2	-0.019626979
82	0xbd9bc697	-0.076062374
83	0x3d91ceb5	0.07119504
84	0xbd1a02b5	-0.037600238
85	0xbd147ca1	-0.036251668
86	0xbde38c60	-0.11110759
87	0xbd5d21ba	-0.053987242
88	0x3d2de5d1	0.042455498
89	0xbd557e8f	-0.05212265
90	0xbd7845af	-0.06061333
91	0x3c343ab3	0.011000323
92	0x3d911dfd	0.07085798
93	0xbc8ce687	-0.017199768
94	0x3d927e2f	0.07152974
95	0x3caeffe4	0.021362253
96	0x3c8c3ce7	0.017118884
97	0xbd54b9db	-0.051935058
98	0x3c6d3e4e	0.014480187
99	0x3d0952c5	0.0335262
100	0xbdb79ed2	-0.089658394
101	0xbc6354d6	-0.013875207
102	0xbd5aa96a	-0.053384222
103	0xbb99bcbc	-0.0046916883
104	0x3c9091e5	0.017647693
105	0x3d97b9f5	0.07408515
106	0x3af82237	0.0018931095
107	0x3d365976	0.04451891
108	0xbdbc2d18	-0.091882885
109	0xbd272085	-0.040802497
110	0xbdb89995	-0.090136684
111	0xbbcae957	-0.006192367
112	0xbd5c49ee	-0.053781442
113	0xbd088849	-0.033333097
114	0x3c90b260	0.01766318
115	0xbcacaf78	-0.021079764
116	0x3cfa8171	0.0305793
117	0x3d6e0328	0.05810848
118	0xbd80b330	-0.06284177
119	0xbd9d437e	-0.07678889
120	0xbd639c02	-0.055568703
121	0xbc1cb029	-0.009563484
122	0x3d630b9c	0.055430993
123	0xbb22f0bc	-0.0024862727
124	0xbd8b3d9d	-0.06798861
125	0xbd53a84a	-0.051674165
126	0x3cee217c	0.029068701
127	0x3c0f3c69	0.00874243
128	0xbe15e4c0	-0.14638042
129	0x3dd631d4	0.10458723
130	0x3c1c025b	0.009522046
131	0x3c999faa	0.018752892
132	0x3b41168d	0.0029462904
133	0x3d42a058	0.047516197
134	0xbd15aad7	-0.03653988
135	0xbe20df1b	-0.15710108
136	0xbdcf1133	-0.10110702
137	0xbe07e226	-0.13269863
138	0xbdcfd495	-0.10147969
139	0x3de1c1c9	0.1102329
140	0xbc99baa4	-0.018765755
141	0xbdca7c5f	-0.09887003
142	0xbccc6100	-0.024948597
143	0x3d6e777c	0.058219418
144	0xbd906594	-0.070506245
145	0xbd6ee7bb	-0.058326464
146	0xbde54834	-0.11195412
147	0x3a74d5b8	0.0009339708
148	0xbca50dd5	-0.020148197
149	0x3d2af836	0.04174062
150	0xbd01fdd2	-0.031736203
151	0xbd20cced	-0.039257932
152	0x3da1e97d	0.079058625
153	0x3bca512f	0.0061742286
154	0xbd5dbb8e	-0.054133944
155	0x3cf14e02	0.029456142
156	0xbcea8802	-0.028629307
157	0x3d94e012	0.072693005
158	0x3ca9eb4f	0.020742087
159	0xbdf72807	-0.120681815
160	0xbd1c66ca	-0.038183965
161	0xbc5c1150	-0.013431862
162	0x3cf71c43	0.030164843
163	0xbd214005	-0.039367694
164	0xbc632f40	-0.013866246
165	0xbc4d2919	-0.0125220055
166	0x3d332543	0.043736707
167	0xbc29d69f	-0.010366111
168	0xbde221f0	-0.11041629
169	0xbd204af9	-0.039134
170	0xbd458163	-0.048219096
171	0xbd242b58	-0.0400804
172	0xbdb27e9e	-0.087155566
173	0xbd6883f9	-0.056766484
174	0xbd1e1798	-0.03859672
175	0xbdb2cc2b	-0.08730348
176	0xbd3686dc	-0.044562206
177	0x3c9fdca9	0.019514399
178	0xbc885b5b	-0.016645124
179	0x3cd91007	0.0264969
180	0x3c92233b	0.017839065
181	0x3d560e29	0.052259598
182	0x3ce19f4b	0.027541777
183	0x3d6f34fd	0.058400143
184	0x3d91e80e	0.07124339
185	0xbd805824	-0.062668115
186	0xbd29bce8	-0.04143992
187	0x3dbc1541	0.09183741
188	0xbcbd340d	-0.023096109
189	0xbda835cb	-0.08213385
190	0xbb016df8	-0.0019749384
191	0x3d09557a	0.033528782
192	0xbde5111f	-0.11184906
193	0xbdd8c719	-0.1058485
194	0x3c7009f5	0.014650811
195	0xbd982868	-0.07429582
196	0xbd0ab34f	-0.03386241
197	0x3d691ebd	0.05691408
198	0xbd9fe39c	-0.07807085
199	0xbc0e1848	-0.008672781
200	0xbd183bb6	-0.03716632
201	0x3daab251	0.083347924
202	0xbd5af85d	-0.053459514
203	0x3d38f45d	0.045154918
204	0x3cd634bd	0.026148194
205	0xbd80c615	-0.06287781
206	0xbd875e18	-0.06609744
207	0x3cfa5aea	0.03056093
208	0xbd9dff68	-0.077147305
209	0xbd40c727	-0.047064926
210	0xbd8573f5	-0.06516258
211	0x3ca73253	0.020409739
212	0xbe2fe869	-0.17178501
213	0xbbf038a9	-0.007330973
214	0xbd106138	-0.035248965
215	0xbd1dd909	-0.03853706
216	0xba78a676	-0.0009485254
217	0xbe03dd1d	-0.12877317
218	0x3d693ea6	0.05694451
219	0xbc74ebf3	-0.014948833
220	0x3c54ccd8	0.012988292
221	0xbda91514	-0.082559735
222	0x3d80e3d3	0.06293454
223	0x3d132d12	0.035931654
224	0xbdaebd1d	-0.08532164
225	0x3d80e41c	0.062935084
226	0xbdfbca86	-0.12294488
227	0x3ccc2f56	0.024924915
228	0x3d049fbc	0.032378897
229	0xbdb8d69f	-0.09025311
230	0xbca6b147	-0.020348204
231	0x3d7361dd	0.0594195
232	0xbc063a8c	-0.00819267
233	0xbc2da4ea	-0.010598401
234	0xbd48295b	-0.048867565
235	0x3c829243	0.015938884
236	0x3ce768c0	0.02824819
237	0xbcf3e2df	-0.029771267
238	0xbd963746	-0.07334761
239	0xbd19f192	-0.037583895
240	0x3b81e0a0	0.003963545
241	0xbdd75c85	-0.105156936
242	0x3d823e7e	0.06359576
243	0x3c3d0709	0.011537322
244	0xbd570356	-0.052493416
245	0x3d5e8de1	0.054334525
246	0xbda1bc9a	-0.07897301
247	0x3c0cbfcd	0.008590651
248	0x3d1d2343	0.038363706
249	0x3dbe1bc5	0.0928264
250	0xbbc271c1	-0.0059339707
251	0xbd0c4352	-0.03424389
252	0x3d4a8118	0.04943952
253	0xbcfeeb51	-0.031118067
254	0x3c61c751	0.013780431
255	0xbd5b6951	-0.053567234

fc2.bias f4 [128]
0	0xbcd5001d	-0.02600103
1	0xbd528db8	-0.051404685
2	0xbd9812ec	-0.07425484
3	0xbd492ef4	-0.049117044
4	0xbcc6c20b	-0.024262449
5	0x3b3e4aa3	0.0029036186
6	0xbc0aee2f	-0.008479639
7	0x3d5382de	0.051638477
8	0x3cb2286c	0.02174779
9	0x3d33374e	0.043753915
10	0xbdc09bd6	-0.09404723
11	0xbe20967f	-0.1568241
12	0xbd4dc77a	-0.050239064
13	0xbd6fbe00	-0.058530807
14	0x3cda22d3	0.026627934
15	0xbd1efeb4	-0.038817123
16	0xbda33459	-0.07968969
17	0xbdd763b9	-0.105170675
18	0xbdb36075	-0.08758632
19	0x3ce35d8a	0.027754564
20	0xbd236ee5	-0.03990068
21	0xbd664b54	-0.056224182
22	0xbd4563dd	-0.04819094
23	0xbd582bab	-0.05277602
24	0xbd7898b3	-0.0606925
25	0xbd3569cf	-0.04429036
26	0x3d87929b	0.0661976
27	0xbc06f3c5	-0.00823683
28	0xbda15397	-0.078772716
29	0xbe0542ee	-0.13013813
30	0x3e04ab30	0.12955928
31	0x3d11ac95	0.035564978
32	0xbd2ba6c1	-0.041907076
33	0x3d84746a	0.06467517
34	0xbd177161	-0.03697336
35	0x3c028b43	0.007967773
36	0x3dee3b92	0.11632456
37	0x3d522b8d	0.051311065
38	0x3cb1e3be	0.021715041
39	0xbd9ebef1	-0.07751263
40	0xbc881212	-0.01661018
41	0x3d6c7764	0.057731047
42	0xbd42b119	-0.047532175
43	0x3cc47c8f	0.023985175
44	0xbd0b5f30	-0.034026325
45	0x3d8881eb	0.06665405
46	0xbd2b79a1	-0.04186404
47	0x3d82774c	0.0637041
48	0x3d2a7dd3	0.0416239
49	0x3beb9401	0.0071892743
50	0x3d63a201	0.05557442
51	0x3c737646	0.014859742
52	0x3d9a6dd4	0.07540479
53	0x3b53f497	0.0032341832
54	0x3d3fa4a0	0.046787858
55	0x3cb2745d	0.021784002
56	0xbcdd7fbf	-0.027038453
57	0x3ce1278b	0.027484676
58	0xbd800819	-0.062515445
59	0xbc87d50b	-0.016581079
60	0xbd0a89c0	-0.033822775
61	0xbd74e311	-0.05978686
62	0xbdbd7cd4	-0.09252325
63	0xbdb87fc5	-0.09008745
64	0xbcb30f39	-0.021857845
65	0xbc6516cb	-0.013982485
66	0xbc7982c1	-0.015228928
67	0xbdb67bb2	-0.08910312
68	0xbc3c9b06	-0.01151157
69	0xbc68af1b	-0.014201905
70	0x3cb63f9e	0.022247132
71	0x3e051c0e	0.12998983
72	0xbd6ad85b	-0.05733524
73	0xbc86b7f7	-0.016445143
74	0x3ca15dcc	0.019698046
75	0x3d85fed5	0.06542746
76	0x3d490986	0.049081348
77	0xbc6fbb2e	-0.014632029
78	0x3cdfd94b	0.027325293
79	0x3def9ae9	0.11699469
80	0xbb1d44ba	-0.0023997263
81	0xbdc1bfca	-0.09460409
82	0xbe0e04e1	-0.13869049
83	0x3cf43b59	0.029813455
84	0xbccaf8e1	-0.024776878
85	0xbc39f6f6	-0.011350384
86	0x3d275439	0.040851805
87	0x3cbba027	0.022903515
88	0x3d3274a7	0.04356828
89	0xbd8dcc67	-0.06923752
90	0xbd13c998	-0.036080927
91	0x3cc9e51d	0.024645383
92	0x3d1a115f	0.037614223
93	0xbda906b7	-0.08253234
94	0xbc2a34df	-0.010388582
95	0xbcf42e1c	-0.029807143
96	0x3d36c7ed	0.044624258
97	0x3d95b551	0.07309974
98	0x3d8ecb80	0.06972408
99	0x3cd7d217	0.026345296
100	0x3d350704	0.044196144
101	0x3d0fb517	0.03508481
102	0xbcf847d4	-0.030307688
103	0x3bf10a00	0.0073559284
104	0xbd351c69	-0.044216547
105	0xbdb0fb0c	-0.086416334
106	0x3c17dd24	0.009269033
107	0xbdcc35bf	-0.09971189
108	0x3d112c4e	0.035442643
109	0xbddaf875	-0.10691921
110	0x3c97874b	0.01849713
111	0xbd9b831a	-0.07593365
112	0xbd949c54	-0.0725638
113	0x3e0ae1e3	0.13562731
114	0xbde64719	-0.112440296
115	0xbd09fbe1	-0.033687476
116	0xbb15f2f7	-0.0022880414
117	0x3d6e928e	0.058245234
118	0x3c673217	0.014111063
119	0xbd9f59d8	-0.07780808
120	0xbacfaf2e	-0.0015845054
121	0xbca54cbf	-0.020178197
122	0xbd0aace9	-0.033856306
123	0x3d351085	0.044205207
124	0x3d98aac0	0.07454443
125	0x3ce8a28c	0.02839782
126	0xbc2b393b	-0.0104506565
127	0xbd44f165	-0.048081774

fc3.weight f4 [2, 128]
0	0xbc2d1089	-0.010563024
1	0xbc8ab138	-0.016930208
2	0x3d45dfb8	0.048309058
3	0xbda3529a	-0.079747394
4	0xbda19999	-0.078906246
5	0xbca6e1e5	-0.020371387
6	0x3d8689fb	0.065692864
7	0x3d7321cf	0.059358414
8	0x3c1e7357	0.009671054
9	0xbc14336c	-0.009045463
10	0xbbe9c249	-0.0071337563
11	0xbd8ec543	-0.069712184
12	0xbbd1b34a	-0.0063995467
13	0xbd5491ec	-0.051896974
14	0x3cb3dce3	0.021955913
15	0xbbebde51	-0.007198133
16	0x3c1b8623	0.00949243
17	0xbdf3c7fe	-0.1190338
18	0x3d28dd78	0.041226834
19	0xbc5ab217	-0.013348124
20	0xbd705533	-0.058675002
21	0xbca211e2	-0.019783918
22	0xbd209dff	-0.039213177
23	0x3cefed00	0.029287815
24	0x3d555bf2	0.05208964
25	0x3bbdbae6	0.0057901023
26	0xbc9ea200	-0.019364357
27	0x3d9231fc	0.0713844
28	0x3c14b299	0.009075784
29	0xbde9cdea	-0.11416228
30	0x3ddb88c9	0.10719449
31	0x3c43c1dd	0.011948076
32	0x3d58a52b	0.05289189
33	0xbc8abc28	-0.016935423
34	0x3d1752a1	0.036944035
35	0xbdaea161	-0.08526874
36	0x3d66d8ec	0.056359217
37	0xbae09c91	-0.0017136504
38	0x3d390271	0.045168344
39	0x3c4553a3	0.012043866
40	0x3ce9b4f8	0.028528675
41	0x3db9dec4	0.09075692
42	0x3a87888c	0.0010340377
43	0xbd63a827	-0.055580284
44	0x3cac14a0	0.021005929
45	0x3d592814	0.053016737
46	0x3d1269ce	0.035745434
47	0x3b942ab2	0.0045216912
48	0xbbbdee3e	-0.005796223
49	0x3b94c11b	0.0045396215
50	0x3d43f4fa	0.04784105
51	0x3d8a7124	0.06759861
52	0x3c98573c	0.018596284
53	0x3d081ff8	0.033233613
54	0xbc8d779a	-0.017268945
55	0xba3e226b	-0.00072530535
56	0xbd40ad60	-0.047040343
57	0xbb1cfb4f	-0.0023953503
58	0x37db8dbc	2.6172835e-05
59	0x3bf958af	0.007609449
60	0xbcac8fb7	-0.021064622
61	0xbd872283	-0.065983795
62	0xbca9783f	-0.02068722
63	0x3c4cee99	0.012508058
64	0x3ccc942e	0.024973001
65	0xba22f87e	-0.0006216838
66	0x399177c0	0.00027745776
67	0xbcffce1f	-0.031226216
68	0x3d0403ed	0.032230306
69	0x3d944773	0.0724019
70	0xbcef2aac	-0.029195152
71	0x3d6cb244	0.057787195
72	0xbd24fcce	-0.040280156
73	0x3c8edcc3	0.017439252
74	0xbd190799	-0.03736076
75	0x3caf9961	0.021435441
76	0xbd128444	-0.03577067
77	0xbcd7ae5b	-0.026328256
78	0xbb4bdfe1	-0.0031108784
79	0x3cc08b7b	0.02350401
80	0xbd1abe2b	-0.037779015
81	0xbd66c046	-0.05633571
82	0xbd180091	-0.037109915
83	0x3d70fe0a	0.05883602
84	0xbd2fb329	-0.04289547
85	0x3cd2df49	0.025741236
86	0xbd55914c	-0.05214052
87	0x3ac1dffb	0.0014791483
88	0x3ca07ff9	0.019592272
89	0xbccf0a77	-0.025273545
90	0x3c5a50c5	0.013324921
91	0xbd2dbe65	-0.042417902
92	0x3ca56174	0.02018807
93	0xbc6c897f	-0.0144370785
94	0x3c46be2e	0.012130303
95	0xbdc509f5	-0.0962104
96	0x3d845ec8	0.064633906
97	0xbd83bf79	-0.06433005
98	0x3d497699	0.04918537
99	0x3c14f1ea	0.00909088
100	0x3c816bd3	0.015798485
101	0xbb7094da	-0.0036709816
102	0x3a94c34e	0.0011349709
103	0xbd1b9df7	-0.037992444
104	0x3d820f64	0.06350592
105	0x3c989358	0.018624946
106	0xbd1eb9ce	-0.038751416
107	0x3cec4609	0.02884199
108	0xbd7c6a76	-0.061624967
109	0xbe7c6958	-0.2464956
110	0xbd5f4619	-0.05451021
111	0xbe39c93e	-0.18143174
112	0xbd0af007	-0.033920314
113	0x3d94d495	0.07267109
114	0x3ac21ed6	0.0014810215
115	0x3d23536e	0.039874487
116	0x3da40760	0.08009219
117	0x3b646e23	0.0034855686
118	0xbc005396	-0.007832428
119	0x3b2dd299	0.002652323
120	0x3b8b97b5	0.0042600282
121	0xbb5417f4	-0.003236291
122	0x3cf5fb48	0.030027047
123	0x3cb5c90f	0.022190599
124	0xbb407831	-0.0029368515
125	0xbcee0727	-0.029056145
126	0x3cad11b7	0.021126611
127	0x3c60fbc3	0.0137319
128	0xbd2f5746	-0.04280784
129	0xbd8156a0	-0.063153505
130	0x39ae5201	0.00033248964
131	0x3dadbbce	0.084830865
132	0xbdbf9e1a	-0.09356327
133	0x3bb3bc40	0.0054850876
134	0x3d8b4c91	0.06801713
135	0x3c3da163	0.011574122
136	0x3c9ce6a9	0.019152956
137	0xbae28977	-0.0017283399
138	0x3d9186cf	0.07105791
139	0xbd949c8c	-0.072564214
140	0x3bfcb39f	0.007711842
141	0x3c3b5f64	0.011436317
142	0x3a9cab2f	0.0011952872
143	0x3c9e0da5	0.019293616
144	0x3cb8508a	0.022499342
145	0xbdb89108	-0.090120375
146	0xbac7b7f2	-0.0015237315
147	0x3d3b90d0	0.0457924
148	0x3d2e16ce	0.042502217
149	0x3c353309	0.011059531
150	0xbcff4eac	-0.031165443
151	0x3caadb63	0.020856565
152	0x3bd35f88	0.006450597
153	0x3bb5909d	0.005540921
154	0xbc125422	-0.008931192
155	0xbc5c5575	-0.013448109
156	0xbbe6d246	-0.0070441095
157	0xbd9cfb35	-0.076651014
158	0x3deed36d	0.1166142
159	0xbb800f19	-0.00390805
160	0xbc91e007	-0.01780702
161	0x3babfd15	0.0052486756
162	0x3d7a2821	0.061073426
163	0x3d41026d	0.047121454
164	0x3d264328	0.04059139
165	0x3d812171	0.063052066
166	0x3d2305f4	0.0398006
167	0xbbb5b1a9	-0.0055448604
168	0xbc123724	-0.008924279
169	0x3dd39aa5	0.103322305
170	0xbc579063	-0.013156983
171	0x3d8f6d6c	0.070032924
172	0xbd20af6b	-0.03922979
173	0x3da100e0	0.07861495
174	0xbb492960	-0.0030694827
175	0x3b74fa6c	0.0037380708
176	0xbabbcec2	-0.0014328586
177	0x3b762027	0.0037555785
178	0xbb20b9fa	-0.0024524913
179	0x3d8d0bf1	0.06887043
180	0x3d2b4a1e	0.04181873
181	0x3c54c1a1	0.012985618
182	0xbd255194	-0.040361002
183	0xbb2b4cbe	-0.0026138271
184	0xbd3dffdb	-0.04638658
185	0xbc618a23	-0.0137658445
186	0xbd16e6a8	-0.036841065
187	0x3c08f9dc	0.008360352
188	0x3c39fae8	0.011351325
189	0x3cfc6d98	0.030813977
190	0x3d45f499	0.04832897
191	0x3b7adb32	0.0038277623
192	0x3ca2f469	0.019891934
193	0xba00a28b	-0.0004907033
194	0xbc46fa16	-0.012144586
195	0xbd81396f	-0.06309783
196	0xbbb2f22a	-0.005460997
197	0xbca527d9	-0.020160602
198	0xbc1e1f17	-0.009650967
199	0x3d321852	0.043480225
200	0xbd070f22	-0.032973416
201	0xbb1944c5	-0.0023386937
202	0xbcf836b1	-0.030299516
203	0x3d182662	0.03714598
204	0x3d5adf58	0.053435653
205	0xbc5f7d44	-0.0136407055
206	0xbc99f319	-0.018792676
207	0x3cc71375	0.02430127
208	0xbd0296d8	-0.031882137
209	0xbd9fd4c3	-0.07804253
210	0xbd06971c	-0.032858953
211	0xbd441098	-0.047867388
212	0xbd58eaeb	-0.05295841
213	0xbda1bafd	-0.07896993
214	0xbc7c5a16	-0.015402338
215	0xbb85884c	-0.0040750857
216	0xbdca918f	-0.09891044
217	0xbc57d104	-0.013172392
218	0xbd50ff7a	-0.05102489
219	0xbc6dc078	-0.01451122
220	0xbd46571a	-0.04842291
221	0xbbcac96e	-0.006188563
222	0xbbf4c6e1	-0.0074699973
223	0xbdfa680f	-0.12226879
224	0x3d60283d	0.054725874
225	0x3c79414c	0.015213322
226	0xbd99786e	-0.07493673
227	0xbd0901ed	-0.033449102
228	0xb9eb8107	-0.00044918826
229	0xbca3d2d7	-0.019997997
230	0x3c039ffb	0.008033748
231	0xbd808fca	-0.062774256
232	0x3d87a90c	0.0662404
233	0x3cc2b3f0	0.023767442
234	0x3c05bcf0	0.008162722
235	0x3c97185e	0.018444236
236	0xbd2c690f	-0.04209238
237	0xbe011e72	-0.1260927
238	0xbb2fe24e	-0.002683777
239	0xbdedc7e7	-0.11610394
240	0x399dbc62	0.0003008573
241	0x3dc73354	0.09726587
242	0xbbbab7f8	-0.0056982003
243	0x3bbb6f4b	0.0057200543
244	0xbcdf712a	-0.02727564
245	0x3b9eb0ae	0.004842839
246	0x3affb1f7	0.0019507994
247	0xbd851713	-0.06498542
248	0xbc81184a	-0.015758652
249	0xbc45e498	-0.012078427
250	0xbce8975f	-0.028392492
251	0x3cbcaea0	0.023032486
252	0x3c9c3d34	0.019072153
253	0x3c02456a	0.00795112
254	0xbb76a096	-0.0037632338
255	0x3b516368	0.003195012

fc3.bias f4 [2]
0	0x3d7ee7b4	0.062232688
1	0x3d1ab3db	0.03776918
